affinity_compass.pt (torch, 163799 bytes, 20 tensors)

lig_emb.weight f4 [64, 15]
000000 0a 9c 33 be 2d 87 db bd ce 71 5a 3e 99 06 63 3d
       -0.17539993 -0.10719142 0.21332476 0.055426214
000010 3b 73 52 3e 9b dd 95 3d ba 58 78 3e b7 ab 3d be
       0.2055177 0.073176585 0.24252596 -0.18522535
000020 f3 4a 70 bd a6 ab 1c 3e 2a d0 a3 3d a7 89 3f be
       -0.058665227 0.15299854 0.079986885 -0.18704854
000030 f5 68 16 be 17 7a c3 3d 1e fb eb bd 5d 8b 05 3d
       -0.14688475 0.09544771 -0.11522506 0.03260361
000040 cc ea 6a bd 91 dd 34 3e f0 84 3a be 7e 16 57 be
       -0.057352826 0.17662646 -0.18214774 -0.21004674
000050 3a 6e 06 3e 93 ed 6b bc 55 33 2b 3e e1 94 19 be
       0.13127986 -0.014399904 0.167188 -0.14998199
000060 d2 6c 46 3e 66 57 ea 3d dd 85 6b be a3 0f 2b 3e
       0.19377449 0.11442451 -0.23000284 0.16705184
000070 f7 3d b8 bd 6f df 8d 3d d4 53 19 3e 26 8d 41 3e
       -0.08996194 0.06927382 0.14973384 0.189015
000080 d9 34 69 be 2c 9d a4 bd 63 8d 17 3e fc d7 71 be
       -0.22774066 -0.08037791 0.14800029 -0.23617548
000090 ff 2f 57 3e d5 99 b2 bd 27 fc 6a be 30 a0 7b 3e
       0.21014403 -0.087207474 -0.22947751 0.24572825
0000a0 81 64 81 3e d8 53 53 be a1 55 30 be 78 6d 6d bd
       0.2527199 -0.20637453 -0.17220165 -0.057965726
0000b0 87 77 db bd 9d 89 c3 3d be c2 43 be 9f 8f 57 be
       -0.107161574 0.09547732 -0.19117257 -0.21050881
0000c0 27 12 53 3e 59 3f c1 3c 44 b4 e8 3d 77 a0 c3 3d
       0.20612393 0.023589777 0.11362508 0.095520906
0000d0 d4 47 d7 3d f5 d3 e5 bc 89 18 6a 3c a2 8f 4c 3e
       0.10511747 -0.02805517 0.014288076 0.19976667
0000e0 a2 68 d4 bd e7 1d 1e be 87 0e 47 3e fc 99 bd 3d
       -0.103715196 -0.15441094 0.19439135 0.09257886
0000f0 8f cc ba 3b 68 b3 36 be 1a 14 fb bc 4a 44 e3 bd
       0.005700655 -0.17841876 -0.030649234 -0.110970095
000100 3e da 1a bd 67 fd 8c 3d 84 77 8e 3c 0a 7e 48 be
       -0.03780579 0.0688427 0.017390974 -0.1957933
000110 62 6b 6c be 6b 7c 2a be d9 28 ff bd c6 fd 1b be
       -0.23087838 -0.16649024 -0.12458963 -0.15233526
000120 45 f1 0c be 89 0a 0c be 99 4a 81 be 60 4a 0d 3a
       -0.13763912 -0.13675894 -0.25252226 0.0005389806
000130 6f b6 fa 3d 21 47 fe bc 20 3c 72 3e 83 6f 54 3e
       0.12241828 -0.031039776 0.23655748 0.20745663
000140 fb c8 18 be 6b 32 b4 bd ac ce 20 3e 2d ee 2c 3c
       -0.14920418 -0.08798679 0.15703839 0.010554832
000150 03 56 5d be dc ff 80 3e 65 a8 ea bd 53 8b 2f 3d
       -0.21614842 0.25195205 -0.114579 0.04285748
000160 ef 9a 86 3d 2c bb 5c be 5f cd e5 3d d0 4f d4 bd
       0.0657252 -0.21555775 0.11220812 -0.103667855
000170 c5 6e ae bd 95 66 81 3d d0 fc 96 3d 64 04 d1 3d
       -0.08517221 0.06318394 0.07372439 0.102059156
000180 f5 53 14 bd 22 81 d5 3d 2a 6f 92 3d 86 45 f6 bd
       -0.03621288 0.10425021 0.07150109 -0.12024979
000190 5b a2 6a 3e 77 1e 19 be 90 6b cd 3d b6 c5 5a be
       0.22913496 -0.14953028 0.100302815 -0.21364483
0001a0 5c 92 76 3e d4 9c 1f 3d 8a 7a 4c bd e0 5f 1e 3e
       0.24079269 0.038967922 -0.04992155 0.15466261
0001b0 bd 85 22 bc 09 5f 51 be e9 38 da 3d 14 07 c0 ba
       -0.009919581 -0.2044641 0.10655386 -0.0014650547
0001c0 5f 49 a2 3b c9 1b 86 bd 83 b0 13 be dd 0e 33 3e
       0.004952594 -0.06548268 -0.14422803 0.17486139
0001d0 60 2f 8d 3e 23 b4 52 3d 99 c3 f9 3c 2b 80 c1 3d
       0.27575207 0.051441323 0.030488776 0.09448274
0001e0 23 71 0a be 6f 8e 0d 3e 1c 41 41 bd 27 e0 29 3e
       -0.1351972 0.13823865 -0.047181234 0.16589414
0001f0 29 4d 40 be 4e b0 20 be c8 16 2f be ed e1 9e 3d
       -0.18779434 -0.15692255 -0.17098534 0.07757936
000200 66 eb 44 3e 9a d5 18 be 44 3b 2b bd e4 58 07 3e
       0.19230422 -0.14925233 -0.041804567 0.13217503
000210 9c eb 39 3c 83 02 82 3e 13 ac 74 3e 81 c0 78 be
       0.011347678 0.2539254 0.23893766 -0.24292184
000220 ca 7c 2f bd c0 a3 be 3c 12 6e 6a 3e 14 36 47 bd
       -0.042843617 0.023271441 0.22893551 -0.048635557
000230 ce dc 31 3b 60 4e e0 bc bc 9f 61 3e 9b 5b 1e 3e
       0.0027139666 -0.027381122 0.2203359 0.15464632
000240 e3 28 26 bc b6 cc 25 3e 94 a4 79 bd e9 a3 e0 bd
       -0.010141584 0.16191372 -0.06094797 -0.109687634
000250 60 ad 6f 3e 37 41 73 3d 3a 22 22 3e 9c a7 52 be
       0.23405981 0.059388366 0.15833369 -0.2057175
000260 d7 10 44 3e 94 9b 97 bd e5 92 48 3d 49 9d 43 be
       0.19147049 -0.07402721 0.048968215 -0.19102968
000270 b1 81 83 bd 88 76 c5 bd de 2a e0 3d 84 e9 89 3e
       -0.06421221 -0.09641749 0.10945676 0.2693597
000280 78 5a 65 3e e4 55 2e 3e 02 4f 14 3e 55 e2 5c be
       0.22397792 0.17024952 0.14483264 -0.21570714
000290 9c 23 3f 3e e3 50 75 3e cf 33 27 3e d8 59 e3 3d
       0.18665928 0.23956637 0.16328357 0.11101121
0002a0 0c 11 14 be 7a 26 fa bd 3f f4 90 bd 46 0e a1 bd
       -0.14459628 -0.1221437 -0.07077836 -0.078640506
0002b0 a9 f4 d6 3d 6a a3 74 3d 19 80 42 be a8 dc 90 bd
       0.10495884 0.059726156 -0.18994178 -0.07073337
0002c0 9c 7c ee bd c4 6c 80 3e 59 01 e5 bb 6c 44 6a 3e
       -0.11644861 0.25082982 -0.006988686 0.22877663
0002d0 4f c8 ef 3d 62 71 29 be 2a 8b ce 3d 16 14 d8 3d
       0.11708128 -0.16547158 0.10085137 0.10550706
0002e0 f0 5d 42 be 5c f1 54 be b9 3d 36 3e 5d c5 a3 3d
       -0.18981147 -0.20795196 0.17796983 0.079966284
0002f0 09 64 c7 bd 3c e7 d8 3d bb c3 c8 bd b9 b0 9e bd
       -0.09735877 0.105909795 -0.098029576 -0.07748551
000300 9b 62 97 bd 39 85 b7 3c 48 53 f9 bb 99 39 6d 3e
       -0.073918544 0.022402393 -0.007608805 0.23166503
000310 ad 0d c2 bd 3e d1 78 3e 99 b4 4a 3d 27 2f 56 be
       -0.09475265 0.2429857 0.049488638 -0.20916425
000320 03 74 00 3e 7b d8 4b 3e bb 78 76 3e 83 90 09 be
       0.12544255 0.199068 0.24069493 -0.13434033
000330 a4 8b 52 3e fb d6 fd 3c 04 43 25 bd c6 2d 2d 3e
       0.20561081 0.0309863 -0.040347114 0.16911992
000340 27 74 75 3e 73 95 9e bc 78 b7 0a be 5d 8e 1b bd
       0.2397009 -0.019358372 -0.1354655 -0.037977565
000350 d9 2a 0e be b0 ab c5 bd 1a 86 10 3e dc a0 52 be
       -0.13883533 -0.096518874 0.14113656 -0.20569175
000360 f5 0d 71 3e f8 4f d8 bc 0f 18 67 be ce e0 7d 3e
       0.2354048 -0.02640532 -0.22567771 0.24792787
000370 e9 35 8d 3b 64 00 7a 3e 36 05 46 3e c9 fb 58 be
       0.004309405 0.24414212 0.19337925 -0.21189798
000380 cb 0f 50 be c0 20 a5 3c c3 7c b2 bd f6 5a 74 3d
       -0.20318525 0.020157218 -0.08715203 0.05965706
000390 cf 72 6f be 4b 78 5a bd 11 1d ad 3d 99 21 87 bc
       -0.2338364 -0.053337377 0.084528096 -0.016495513
0003a0 5e d7 13 3e 31 24 2e be c3 db bc bd b0 e9 5d 3e
       0.14437625 -0.17005993 -0.09221604 0.21671176
0003b0 cf 1f 1b 3e 2b df ef 3d 1d 43 15 bd 58 b0 75 bd
       0.15148853 0.11712488 -0.036440957 -0.059982628
0003c0 8a c7 c3 bd 01 ee ce 3d 22 60 cc bd c1 e3 70 be
       -0.095595434 0.101039894 -0.099792734 -0.23524381
0003d0 75 b3 0c 3e 46 36 85 be f7 01 be 3c ff 7e cf bd
       0.13740332 -0.2601797 0.023194296 -0.101316445
0003e0 ba a9 0e 3e 50 53 83 be 1e 56 af bd 46 66 bd bd
       0.13931933 -0.256495 -0.085613474 -0.09248023
0003f0 3f c3 29 3e 22 08 61 3e c9 3a 9d 3d 85 f4 59 be
       0.16578387 0.21975759 0.07677228 -0.21284683

lig_emb.bias f4 [64]
000000 22 00 99 bc 9c 1e 17 be 7b ff 1a be 6b 6f 10 be
       -0.018676821 -0.1475777 -0.1513652 -0.14105003
000010 98 84 85 3d e7 57 ea 3d 7a ba f1 bd 0b a6 2b be
       0.06519431 0.11442547 -0.11803146 -0.16762559
000020 a9 0e da bd e6 dc 36 bd ce 1f 6f be a1 87 6a bd
       -0.106473275 -0.04464426 -0.23351976 -0.057258252
000030 79 ab 6d bd 02 69 46 be 17 cc 55 be 68 fc c6 3d
       -0.058024857 -0.19375995 -0.20878635 0.097161114
000040 b3 77 da bd 8c 64 80 3d 22 15 1a 3e ba fd 22 3d
       -0.10667362 0.06269178 0.15047124 0.039792754
000050 6b 27 25 3e 4a cb 09 be c8 7b 2d be 09 f3 fa bb
       0.16128318 -0.13456455 -0.1694175 -0.0076583666
000060 b5 e8 99 bc 14 ea 73 3e 88 37 75 be 52 b0 75 3d
       -0.018787721 0.23819762 -0.23946965 0.059982605
000070 fd be 59 be 2b c3 ad bd 6a 06 f0 ba 41 ce 74 be
       -0.21264262 -0.08484491 -0.0018312458 -0.23906805
000080 8e 36 15 3c 67 f2 d4 bc a8 17 1d be 1e ae 16 3d
       0.009107245 -0.025994493 -0.15341055 0.036787145
000090 4f 91 3f 3e 2f 67 72 3e 74 73 44 3e 64 12 10 3c
       0.18707775 0.23672174 0.19184667 0.008793447
0000a0 56 d9 9a bd 00 19 ba bd 28 d2 dd bd 67 95 49 bd
       -0.07560985 -0.090867996 -0.108311 -0.049214747
0000b0 e0 9f ca bd 1e 2e 40 3e 72 23 de 3d c2 68 74 be
       -0.09893775 0.18767592 0.108466044 -0.23868087
0000c0 d3 c9 f6 3c e4 a4 19 be bf c5 15 3d ed fb 5e 3e
       0.030125534 -0.15004307 0.03656554 0.2177579
0000d0 9c f4 34 be aa ea 82 bd da fa 1c bc 3a 86 16 be
       -0.17671436 -0.06392415 -0.009581292 -0.14699641
0000e0 14 2e 3e be 7d ab 7f 3e 27 e6 5a bc 08 35 20 bd
       -0.18572265 0.24967761 -0.013360537 -0.039113075
0000f0 66 70 78 be fc f9 21 be 79 28 11 3e 26 c4 5c be
       -0.24261627 -0.15818018 0.14175595 -0.215592

prot_emb.weight f4 [64, 8]
000000 47 c6 e5 3d 62 1a 85 be 9e 96 74 be fc aa 58 bd
       0.11219459 -0.2599669 -0.23885581 -0.05289744
000010 1f 60 a9 3e 41 bb 05 3d aa 7a 97 3d 5b 45 5c 3e
       0.33081147 0.032649282 0.07396443 0.21510832
000020 07 98 96 3e 09 9d c6 3b 05 e1 67 3d 67 83 a6 be
       0.29412863 0.0060612005 0.05661108 -0.32522127
000030 fc 9e 77 be 1f 12 8a 3e c5 65 70 3e 5f 83 aa be
       -0.24181741 0.2696695 0.23476322 -0.33303353
000040 0b a0 0b be 6c 68 43 3e 6c e8 87 be e6 11 3b bd
       -0.1363527 0.19082803 -0.2654451 -0.045671366
000050 ec 47 48 be 6c 98 6d be 8e 05 34 3e 51 8c 81 3d
       -0.19558686 -0.23202676 0.17580244 0.06325591
000060 3e bf 51 be e9 98 9d 3d 2e 9b 98 be 2e bf 9e 3e
       -0.2048311 0.07695181 -0.29805893 0.31005234
000070 53 c2 00 3e e7 a7 22 3e 37 b0 9b 3e cd 20 9d 3e
       0.12574129 0.15884362 0.3040788 0.30689088
000080 a4 e5 56 3d 10 29 b7 3d 5e 82 c3 3d 77 33 81 be
       0.052465096 0.08943379 0.0954635 -0.25234577
000090 3e c0 36 be fe 33 95 3d 58 3b 89 3e aa c3 3d bd
       -0.17846772 0.07285307 0.26803088 -0.046329178
0000a0 0c 44 55 be 41 9c 41 3e 17 99 64 bd 93 14 1a 3e
       -0.20826739 0.18907262 -0.05581006 0.15046911
0000b0 2f 08 96 bd c5 14 2e 3d 58 67 e3 3d 46 35 15 be
       -0.0732578 0.042500276 0.11103696 -0.14571103
0000c0 52 9e a3 3e 83 85 d2 3e 6d 66 4b 3e ff 06 4f 3e
       0.31956726 0.41117486 0.19863291 0.20217513
0000d0 ba c0 70 be d5 2e 6e be f4 09 0c 3e 31 f2 00 bd
       -0.2351102 -0.23260053 0.13675672 -0.03148097
0000e0 da c3 80 be ec 57 3a 3e 2a 0a 6f be 40 b4 c4 3e
       -0.25149423 0.18197602 -0.23343721 0.3841877
0000f0 ff e5 b6 3e 2e 00 ff b9 87 26 82 3e 42 d8 3c bd
       0.35722348 -0.00048637524 0.2542002 -0.046104677
000100 09 4a 9d 3e 1a 00 7a bd b2 d5 45 3e b9 b8 15 be
       0.30720547 -0.061035253 0.193198 -0.14621247
000110 06 a6 b7 bd e9 c6 a3 be 66 21 46 be d2 cf 22 3d
       -0.08967213 -0.31987694 -0.19348678 0.039748974
000120 72 02 fc bd 1f 26 23 3e 20 f5 dc bd a3 11 a1 3e
       -0.12305154 0.15932511 -0.107889414 0.31458768
000130 5e 48 47 be 1f 27 48 be ca 8d 1a 3e 4a c6 42 be
       -0.194612 -0.19546174 0.1509315 -0.19020954
000140 70 06 38 be fc 36 06 3d b3 bb 62 3d b7 cb 8b 3e
       -0.17971206 0.03276728 0.055354785 0.2730386
000150 60 5c 0d be ce e0 a9 bd 1a 12 a7 3e de 59 38 be
       -0.1380477 -0.08294831 0.32630998 -0.18003032
000160 81 7e 70 3e 86 d0 92 be 51 e0 99 3e cd 7a 4c 3e
       0.23485757 -0.28674716 0.30053952 0.1996872
000170 df 6b 95 3e 1b 45 b6 3d 4f f4 3b 3e 67 f4 18 bc
       0.29183862 0.088998996 0.18354915 -0.009335614
000180 9c 67 67 be 9b c4 6c 3d 13 0b 7a 3e 8a fb b3 3d
       -0.22598118 0.057804685 0.24418287 0.08788212
000190 47 9f ad 3e b6 6a df 3c 32 db 31 be 4f 82 6a be
       0.3391058 0.027272563 -0.17368773 -0.22901271
0001a0 30 e9 35 3e 60 9d 40 3e 4d 19 2d 3e ec 67 16 3e
       0.17764735 0.18810034 0.16904183 0.1468808
0001b0 ef 72 b7 be 2b 9b a6 3c c4 28 16 be 88 8c 58 3e
       -0.35829875 0.020337662 -0.14663988 0.21147358
0001c0 2c ba c6 3c 92 44 7c be 75 ac 0b bd 92 30 d7 3d
       0.024258696 -0.24635532 -0.034100015 0.10507311
0001d0 65 6d 7a 3e 16 19 59 3c 1a a1 c1 3e 94 0d 0a 3e
       0.24455793 0.01325061 0.37818223 0.13481742
0001e0 16 73 a2 3e 03 bc 0e be 4d b7 54 be a5 15 13 3e
       0.3172843 -0.13938908 -0.20773049 0.14363725
0001f0 29 3b 87 be 9c 64 33 be a7 f5 8b be 5a d0 91 bd
       -0.26412323 -0.17518848 -0.27335855 -0.07119818
000200 f7 db 74 bd 15 a1 13 3e 67 67 2c 3e f3 d4 05 be
       -0.059780087 0.14416917 0.1683632 -0.13069515
000210 39 63 87 3e 88 86 36 bc 42 d6 80 3e ad 6d 81 3e
       0.26442888 -0.011140473 0.25163466 0.25278988
000220 2f ce d2 bd 70 57 76 bd 84 70 43 3e ee 82 b1 be
       -0.10293233 -0.06014198 0.1908589 -0.34670204
000230 be f7 64 be 49 ca 53 3e 09 b6 bb bd 05 2d 80 be
       -0.22360131 0.20682634 -0.0916558 -0.25034347
000240 c3 1c 98 bd 2d c5 84 3e b1 70 ff bd 57 bd 3a 3d
       -0.07427361 0.25931683 -0.12472666 0.045590725
000250 7f 7c a3 be bc 45 8f 3e 06 95 01 3e f1 08 57 be
       -0.3193092 0.2798289 0.12654504 -0.20999505
000260 17 09 46 bc e8 2f 52 3d 11 83 29 3e 0a 86 a2 3e
       -0.012087128 0.05131522 0.16553904 0.3174289
000270 d3 17 47 be 78 ba 07 3e 6a c2 a1 3c 4d 0b a1 bd
       -0.19442682 0.13254726 0.019746024 -0.078634836
000280 08 70 98 3e 8f f2 17 3e ba 27 26 bd 10 6a b9 3c
       0.29772973 0.14838623 -0.04056523 0.022633582
000290 6d 97 77 3c 17 f2 b7 be e6 42 93 be 99 bc 86 3e
       0.015111786 -0.35926887 -0.28761977 0.26315764
0002a0 67 32 d6 3d fa c4 c2 3c e9 0c 2d be 06 5d 97 3e
       0.10458832 0.023775566 -0.16899456 0.2956316
0002b0 74 2d d5 3d 81 ff ab be 82 04 17 3e e9 9e 0b be
       0.1040906 -0.33593372 0.14747813 -0.13634838
0002c0 bf dd 74 be e2 2d 7b 3e 6b 7f 14 be 47 36 1f 3e
       -0.23912714 0.24529222 -0.14501731 0.15548049
0002d0 a5 23 ac 3d 32 d9 83 3e 89 13 ed 3d f6 96 38 3e
       0.08405236 0.25751644 0.11575992 0.18026337
0002e0 12 f9 e8 3b 83 e7 a3 3e fd df 07 3e 11 28 8c be
       0.0071097696 0.32012567 0.13269038 -0.27374318
0002f0 52 5c 88 be e9 f3 28 bd b6 99 19 be 74 26 7e bd
       -0.26632935 -0.041248236 -0.15000042 -0.06204839
000300 e8 a9 91 3b d8 73 b1 bc 8a c9 7f 3d 35 43 a9 3e
       0.004445303 -0.021661684 0.062448062 0.33059087
000310 84 03 9e be 7e be 56 3e 4a bb 23 3e 32 86 8c be
       -0.30862057 0.20971105 0.15989414 -0.27446133
000320 b1 92 17 3e 71 3b 4c 3e 3e 45 65 be 98 70 fd 3d
       0.14802052 0.1994455 -0.22389695 0.12374991
000330 3a c8 65 3e 09 cd 9c be 77 7f 79 be bb 02 8e 3e
       0.22439662 -0.3062518 -0.2436503 0.27736458
000340 c1 b8 c0 3d 23 ee eb 3d 06 24 67 be c8 62 b3 3e
       0.09410239 0.1152003 -0.22572336 0.35036302
000350 7b dc 7c 3e 6b 00 81 3e 6e e2 3f bd 2e b1 01 be
       0.24693482 0.2519563 -0.0468468 -0.12665245
000360 c0 ba 1e bd 70 05 90 3e f2 53 0b 3d f1 f8 81 be
       -0.038752317 0.28129148 0.034015603 -0.2538524
000370 43 8b 96 be d6 c9 a1 3d 15 bf 17 be 2c ef 08 3e
       -0.29403123 0.07899825 -0.14818986 0.13372487
000380 fa b3 d2 bd aa 94 74 3e eb 83 10 bd 82 6f d4 3d
       -0.10288234 0.23884836 -0.035282057 0.10372831
000390 ac 44 d0 bc 3b f9 9e 3e 9a cc 59 3e 97 82 22 be
       -0.02542337 0.31049523 0.21269456 -0.15870129
0003a0 b0 74 d2 bc 52 fa 16 3e 1d 6b f9 bd e3 76 40 be
       -0.025690407 0.14743927 -0.12178633 -0.18795352
0003b0 96 f9 7c 3e b5 44 93 3c 87 f4 91 3c 2e ed b0 be
       0.24704584 0.017977098 0.017816795 -0.34555954
0003c0 9f be 1e be 4b 4a 3a be b3 7b cf 3d c1 a0 78 be
       -0.15502404 -0.18192403 0.10131016 -0.24280073
0003d0 49 cd d1 3d e8 53 4c 3e db ee c0 bd f8 38 6f 3c
       0.10244233 0.19953883 -0.09420558 0.014600985
0003e0 19 11 82 be fa 10 e1 3c 8a 7c b9 bd d6 71 ac 3d
       -0.2540367 0.027473915 -0.09056957 0.0842015
0003f0 a9 11 93 3e ec 1f 1f 3e 4f b7 25 3d ff e8 4a 3d
       0.2872441 0.15539521 0.04045802 0.04953861

prot_emb.bias f4 [64]
000000 d4 a3 9a 3c 80 d5 93 3e ab 00 c8 3d f8 db 9b bd
       0.018876947 0.28873825 0.097657524 -0.07610315
000010 13 b2 a0 be e1 df c1 bd ec ad 72 be 33 79 e8 bd
       -0.3138586 -0.0946653 -0.23699158 -0.11351242
000020 ff b4 99 3e 3f f2 56 be 67 77 0b 3e 1b b9 a7 3e
       0.30020902 -0.20990847 0.13619767 0.32758412
000030 ad bd b7 3e ca 94 d7 ba 3b f0 91 be 5c 93 c9 bd
       0.358869 -0.0016447541 -0.28503594 -0.0984256
000040 ab 73 8a be 19 f6 a7 3d ac 61 4d 3e 27 62 c3 3d
       -0.27041373 0.08201236 0.2005679 0.095402054
000050 15 c3 0d bd f9 de cc 3d 0f 02 19 3e 18 c0 5c bc
       -0.034609873 0.10003466 0.14942192 -0.013473533
000060 1c 80 8c be 76 eb 18 bd 03 a9 83 be 79 25 b4 bd
       -0.2744149 -0.037333928 -0.25714883 -0.0879621
000070 94 eb 8b 3e a6 d2 3f 3e 62 e4 42 bd 6a 4a 12 bd
       0.2732817 0.187327 -0.047581084 -0.035715498
000080 f6 0c 77 3e 00 9f 62 3d 66 a7 8f 3e 7c 2c 10 be
       0.24126038 0.055327415 0.28057402 -0.1407947
000090 96 1b 61 be a0 16 e3 3d d0 47 75 be c6 78 50 be
       -0.2198318 0.110883 -0.23953176 -0.20358571
0000a0 06 27 36 bd b7 a2 81 3d a6 8d 21 be 3c 59 89 be
       -0.04447081 0.063298635 -0.15776691 -0.26825893
0000b0 ea 10 50 3e c1 00 0f 3e 22 ff 1a 3e 00 3e 04 be
       0.20318952 0.13965131 0.15136388 -0.12914276
0000c0 f7 1f 7f 3e de d9 a2 3e 83 02 7d 3e 61 24 ee 3d
       0.24914537 0.31806844 0.2470799 0.116280325
0000d0 fe ae 84 be 1b 5b 32 bd 9e cd f8 3d ac 01 95 3e
       -0.25914758 -0.043543916 0.12148593 0.29102838
0000e0 05 03 42 be 35 46 87 be 66 80 53 be e3 01 71 3e
       -0.18946464 -0.2642075 -0.20654449 0.23535876
0000f0 c5 98 7c 3e e0 88 9a 3e f1 33 4e 3e 47 2f a8 3e
       0.24667652 0.30182552 0.20137002 0.3284857

time_mlp.0.weight f4 [64, 64]
000000 22 6d 86 3d fe ea d1 39 6b 27 55 bd ef c9 b8 bd
       0.06563784 0.0004003867 -0.052039545 -0.09022891
000010 2b d9 6e bd 4e 8a a8 3d 38 69 d1 3d 68 28 79 3d
       -0.058312576 0.082295045 0.10225147 0.06082955
000020 8f 2e 11 3c 81 77 ea bc dd b4 66 bc 50 35 8a 3b
       0.008861198 -0.028621437 -0.014081207 0.004217781
000030 60 cd 9f bd be 4f 89 bd b5 a1 b2 bc 30 9d 1d 3d
       -0.07802844 -0.06704663 -0.021805624 0.038479984
000040 92 15 b1 bd 0f fc 36 3d 18 ee 72 3d 74 34 05 3b
       -0.08646692 0.044673976 0.059309095 0.0020325454
000050 cc 81 16 bc 1b 7d b2 3c bf 43 9c 3c 94 30 6a 3d
       -0.009186219 0.02178817 0.019075273 0.057175234
000060 90 36 de bd b6 27 a8 bd 98 ba 87 bd 76 2c 04 be
       -0.10850251 -0.08210699 -0.06627387 -0.12907586
000070 92 f9 08 bb b9 60 51 3d 81 b4 81 3d aa b3 37 bd
       -0.0020900709 0.051117633 0.063332565 -0.044849075
000080 38 8b b9 3d da f8 99 bd db 43 1b 3c a4 63 c6 bc
       0.09059757 -0.07518168 0.009476627 -0.024217434
000090 8c 5a 89 bd ab 2c ca 3d 8e 45 65 3d e6 6e 54 3c
       -0.067067236 0.09871801 0.055974536 0.012965893
0000a0 90 98 1f 3c 99 7f d8 bc c4 12 9e bd 06 e7 12 3d
       0.009740964 -0.02642803 -0.07718423 0.035864852
0000b0 03 82 c3 3c df 4a dc 3c 7d 1c 8a bd de 13 2e 3d
       0.023865705 0.02689117 -0.06743715 0.042499416
0000c0 ed c6 8d 3d b5 16 5e bd d8 57 db bd 7c c7 37 3d
       0.06922708 -0.054220874 -0.10710114 0.044867977
0000d0 fa 89 6a bd b1 f5 54 bd ac c9 e3 3b 4e 79 07 3d
       -0.05726049 -0.051992122 0.0069515314 0.03307467
0000e0 f6 57 06 be 4e 4d 50 bb c1 ac aa bd 68 80 bb 3d
       -0.13119492 -0.0031784358 -0.083337314 0.09155351
0000f0 0a d4 f2 3c 2b 42 00 be 1f 3c 85 bd d5 fd b3 3d
       0.029642124 -0.12525241 -0.06505608 0.08788649
000100 6d be 22 bd fa 3b e4 3c 4f 35 20 bd 28 fd c1 3d
       -0.039732385 0.02786063 -0.03911334 0.09472114
000110 94 3e 78 bd 56 c1 7a 3d dd 21 d3 bd 3a 50 52 bd
       -0.060606554 0.061219536 -0.10309193 -0.05134604
000120 44 68 9f 3d 58 72 be bd 98 e9 30 bd aa f7 ad bd
       0.07783559 -0.09299153 -0.043191522 -0.08494504
000130 5b be 25 3c c4 bc 17 3d 5b f2 99 bd 20 58 d1 3d
       0.010116185 0.037045255 -0.07516929 0.10221887
000140 5a 8e 4f 3d 9d e7 0d 3b 09 21 9e 3d 46 e4 bf 3d
       0.050672866 0.0021652945 0.07721145 0.093697116
000150 5c 72 fa bd 3a b3 85 bc 49 91 b2 bc 36 f4 80 bc
       -0.122288436 -0.016320813 -0.021797793 -0.015741449
000160 42 16 7d bc 40 d7 b6 bc 00 70 85 bd e5 6c a3 3d
       -0.015447201 -0.022319436 -0.06515503 0.07979754
000170 49 ee 87 3d 82 ce e6 bd af fa 98 bc d6 3c ca bd
       0.06637246 -0.11269857 -0.018674223 -0.09874885
000180 05 dc f3 3d d7 f7 0d 3d fc 89 02 3c fb fb 59 bd
       0.119072 0.034660187 0.007967468 -0.053218823
000190 bd 09 26 bc c5 c8 92 bd f3 ca 8b bd dd 55 a1 bd
       -0.010134158 -0.071672 -0.06825819 -0.07877705
0001a0 f5 70 aa 3d 83 29 ea bc 0e 45 e7 3c 4e 38 1f 3c
       0.08322326 -0.028584247 0.02823117 0.009718014
0001b0 53 2f b0 bc c3 06 45 3d ef d8 fa 3d cb 16 9f 3d
       -0.021506941 0.04810215 0.12248408 0.07768019
0001c0 48 ad 0a 3d c6 45 8e 3d a3 a7 90 bd 1b cc db bd
       0.03385666 0.06946902 -0.07063224 -0.107322894
0001d0 f9 2f ea bc 32 74 02 3d cf 9b e8 3a 6e 71 fb bd
       -0.028587328 0.031849094 0.001774663 -0.12277494
0001e0 44 37 f4 3d dc e1 fb bd e3 e8 8a bd cb 5c 27 bc
       0.119246036 -0.12298939 -0.06782701 -0.010214995
0001f0 93 ae d9 bc e8 3d b3 bd 87 89 b6 ba ec e6 e0 3d
       -0.026572501 -0.08752042 -0.0013926484 0.10981545
000200 00 7b 15 3d 9c 51 28 3d 33 b7 92 bd 44 6a 14 bb
       0.036494255 0.041093454 -0.07163849 -0.0022646347
000210 1a fb 5e 3d 79 9a 90 bd 21 14 81 bd a9 11 93 bd
       0.054438688 -0.07060713 -0.063026674 -0.07181103
000220 1e dd da 3d 49 34 a2 3c cc 29 87 bd d9 0a ce 3d
       0.10686706 0.019800322 -0.06599769 0.10060663
000230 27 72 be 3a 5a 3b d2 bc da cb a4 3c e6 60 c1 bd
       0.001452987 -0.025663067 0.020116735 -0.0944231
000240 32 1a 88 3c f1 b8 30 bd 11 34 0b be 2e 68 ab bd
       0.016614053 -0.043145124 -0.1359408 -0.0836948
000250 4e 6f 4a bc 86 97 0e 3c a2 a5 0d 3d e0 10 9f bd
       -0.012355639 0.008703118 0.034581788 -0.077668905
000260 da 02 79 3c 49 83 ae bd 0c bd 25 bd 77 68 a0 bd
       0.015198434 -0.085211344 -0.040463492 -0.07832425
000270 4a eb 01 bc a5 cd 23 bd c6 4c e6 bd 84 cf 03 be
       -0.007929632 -0.03999104 -0.11245112 -0.1287213
000280 2d 1b 11 3d 40 ed 5c 3d 93 df 32 3d 25 cc f1 bd
       0.035426307 0.053937197 0.04367025 -0.118065156
000290 aa 76 1d bc af b5 e3 3d aa 0f a6 bc 59 28 2b bb
       -0.009610811 0.11118638 -0.020271141 -0.0026116578
0002a0 5b 55 4e 3d dd 41 28 bc 68 fa f0 bd 6e 83 fc bd
       0.05037437 -0.010269609 -0.11766511 -0.12329756
0002b0 88 6e 5b bd 73 e9 38 3d 41 79 d8 bd df 78 c3 3b
       -0.053572208 0.04514451 -0.10570002 0.0059653367
0002c0 96 41 ef bb 6a 4f 86 bd a5 94 a3 3c 1a a3 e8 bd
       -0.0073015196 -0.06558116 0.01996834 -0.11359234
0002d0 8d 4a 9a 3d 7e 87 e1 bd 96 0c 25 bd 27 1e 7b 3d
       0.07533751 -0.11012171 -0.040295206 0.061308052
0002e0 04 bc 54 bd af fa b1 3d c0 f9 18 3d 09 3e ef bd
       -0.05193712 0.08690392 0.037347555 -0.11681754
0002f0 89 dc 3b bd a7 30 00 be 7b 43 a4 bd 43 0a 93 bc
       -0.045864616 -0.1251856 -0.080206834 -0.01794923
000300 ea fd 1e bd 32 f7 c8 3d a9 d9 0e 3d 7e 48 d4 3c
       -0.03881637 0.09812774 0.034875546 0.025913473
000310 6b b3 b8 bd 03 ff 46 3d d3 a7 54 bd 61 0b 37 bd
       -0.09018596 0.048583042 -0.051917862 -0.044688586
000320 49 e8 96 bd 6a c9 41 bd 99 ff 7c bd 92 c0 76 b9
       -0.07368524 -0.047311224 -0.061767194 -0.00023532126
000330 5f d1 93 3d eb 37 db bd 49 49 26 3d 95 c2 be bc
       0.07217669 -0.10704025 0.040597234 -0.023286143
000340 6e 2a 0c 3d b2 d0 f6 3c 51 02 04 3c 38 65 9c 3d
       0.03422015 0.03012881 0.008057193 0.076364934
000350 2a 85 c2 3b 2e 00 06 be 49 ce 1d 3d 9a 7b 15 bd
       0.0059362845 -0.13086006 0.038526807 -0.03649483
000360 61 60 44 3c 81 27 60 bd 85 09 23 3d f4 aa ba 3d
       0.011985869 -0.054725174 0.039804 0.09114638
000370 8b 13 08 bd 53 e8 a5 3d 77 b5 ac ba e5 c0 cc bc
       -0.033221763 0.08100953 -0.0013176639 -0.024994323
000380 53 51 7a 3d 65 72 43 3d c5 ee 2a bd 81 77 af 3d
       0.061112713 0.047716517 -0.041731615 0.085677154
000390 8d 33 d4 bd 69 0b 0c 3d 98 21 1a bd ab 67 5f 3d
       -0.10361395 0.03419057 -0.037629694 0.054542225
0003a0 d9 34 45 3d 3b 8e 93 bc c9 6e 1b 3d fb a7 0e 3e
       0.048146103 -0.018012157 0.03794745 0.13931267
0003b0 c6 4d 20 3d d3 c7 9e bd 8a bb ae 3d f3 fb b1 bb
       0.03913667 -0.07752957 0.08531864 -0.005431646
0003c0 39 27 e2 3d c8 a8 0e 3d b3 82 7f bd b3 b1 5b 3c
       0.110426374 0.03482893 -0.062380504 0.013409066
0003d0 9c 40 a3 3a ed 74 37 3d d6 6d 74 3a ca 6d 8c bc
       0.0012455168 0.044789243 0.0009324228 -0.017142195
0003e0 cc f3 85 3d 0b 85 b1 bd 2d 19 56 bc 7f 8a fd bc
       0.06540641 -0.08667954 -0.013067526 -0.03094983
0003f0 59 a2 16 be 6b 40 42 3b 9c 6f 8c 3b 4b b4 05 be
       -0.14710368 0.0029640447 0.004285766 -0.13057058

time_mlp.0.bias f4 [64]
000000 40 74 10 3c 9f 70 c0 bd aa af db bc 39 62 a1 bc
       0.008816779 -0.09396481 -0.026817162 -0.019700157
000010 5d c5 34 ba 6d 65 e2 3c c6 b6 2d bd a9 62 ac bd
       -0.00068958645 0.027636254 -0.042410634 -0.084172554
000020 60 01 cb 3d ce 4b fe bd 8c 8c ca 3c 70 44 81 bc
       0.09912372 -0.12416802 0.024725221 -0.015779704
000030 91 6f fb b9 6c 9a b4 3d 7d 6d 5c 3d a5 d9 b3 3d
       -0.00047957574 0.08818516 0.053815354 0.08781747
000040 1b ad 4c bd b9 93 43 3d 7f c0 c1 3d 2b fa a5 3d
       -0.049969774 0.0477483 0.09460544 0.081043564
000050 1f 7c 07 be 41 c8 c1 3d bf 90 36 3b 6d d4 ea bd
       -0.13230942 0.094620235 0.0027857271 -0.11466298
000060 f6 a7 ce bd 84 40 96 bd 78 89 db bd 36 20 e6 bd
       -0.1009063 -0.07336524 -0.107195795 -0.112366125
000070 6a 5e e7 bc 75 0a 38 bd 28 7f d4 ba 81 ad be bd
       -0.028243262 -0.044931848 -0.0016212212 -0.09310437
000080 90 a1 e2 bd c8 7d c8 bd 9d a1 0f be c2 34 b4 3b
       -0.11065972 -0.09789616 -0.14026494 0.0054994533
000090 8f ba e3 3d be 20 95 3d 8a 12 aa 3d c8 04 58 bd
       0.111195676 0.07281636 0.08304317 -0.052738935
0000a0 75 e0 9e bd 35 49 03 be ae 04 cb 3d 57 7d 93 3b
       -0.077576555 -0.12820895 0.09913002 0.0045010257
0000b0 38 5e 74 3d f0 3a d2 3d 9c 6e 49 3d dd f7 9e bd
       0.059660167 0.10265148 0.04917775 -0.0776212
0000c0 53 1a 02 3b 5b 68 9f 3d ab 6f f3 3d 48 7e 2c bd
       0.0019852116 0.07783576 0.11886533 -0.04211262
0000d0 24 19 0e 3c ae 69 83 3b 3d c8 14 bd 32 7e b1 ba
       0.008672986 0.0040104007 -0.036323775 -0.0013541637
0000e0 10 bc b0 bc bf ca a6 3d 7e 69 92 bd 2c f3 d9 ba
       -0.02157405 0.081441395 -0.07149027 -0.0016628257
0000f0 b5 e7 20 3d 88 b8 d8 3d c5 1d b8 bd 4c 30 d1 bc
       0.039283473 0.105820715 -0.08990053 -0.025535725

time_mlp.2.weight f4 [64, 64]
000000 bf 71 e1 3c 72 76 64 3d 02 f1 76 3c c9 67 45 bc
       0.027520059 0.05577702 0.015072109 -0.01204867
000010 6c bd e0 3d ca 31 02 bc f0 0f 24 bd 04 ba 4a b9
       0.10973629 -0.007946441 -0.04005426 -0.00019333517
000020 16 db 91 3d c1 db a0 bd 1c 05 17 bd 76 9f 76 bd
       0.071218655 -0.07854415 -0.036870107 -0.060210668
000030 1f 3f 8a 3d 2b 61 80 3d ea b4 ab bd 31 da ed 3d
       0.06750321 0.06268533 -0.08384116 0.11613882
000040 2c 65 08 3d 06 fb cf 3d 4c 5d bf 3b f5 ac 6c bd
       0.03329961 0.10155301 0.0058399793 -0.057782132
000050 34 7d 0a be a8 e5 13 bd 63 02 73 3d f1 85 4c bd
       -0.13524324 -0.03610769 0.059328448 -0.049932424
000060 ba 96 b1 3d 17 a9 d3 bc 64 ce 7f bc 07 51 83 bd
       0.08671327 -0.025837464 -0.015613172 -0.06411939
000070 0d ba 06 3e 5a a8 d3 3d b6 c2 02 3e 6f 4c 3a 3d
       0.1315691 0.10334845 0.12769589 0.04548305
000080 72 11 a1 bd be 03 c7 3d 1f 9e eb 3c a0 2c 77 bd
       -0.078646556 0.09717511 0.028761921 -0.060345292
000090 33 d8 9f bd 0b 54 fe bb 25 8f 12 bc 61 50 4f 3d
       -0.078049086 -0.0077614835 -0.008945261 0.050613765
0000a0 94 6c c0 3c 66 29 a1 bc d5 88 88 3d 05 85 88 bc
       0.023489274 -0.01967306 0.06666724 -0.016664991
0000b0 b3 a9 d9 bd 37 76 e6 3d 79 6a 29 3c 82 4d 26 bd
       -0.10628071 0.112530164 0.0103403265 -0.04060126
0000c0 8b 30 59 bc 2b 02 a0 bd ac 6c 6d bc ba 37 8f bd
       -0.013256202 -0.078129135 -0.014491241 -0.06993051
0000d0 a8 e9 82 bd 75 49 88 bd 5a 62 8a 3d d1 a1 70 bc
       -0.06392223 -0.06654636 0.0675704 -0.014687018
0000e0 ef 03 80 bd 0a c3 33 3d 12 8f b0 3d d0 5b 92 bc
       -0.0625075 0.043887176 0.086210385 -0.017866045
0000f0 4f c6 8a 3d bf 32 d3 bd 67 66 9d 3d 8b fa c3 bc
       0.067761056 -0.103124134 0.07685547 -0.02392318
000100 69 b8 16 3d 13 28 66 bd a4 b2 7f 3d d6 d8 19 3c
       0.03679696 -0.05619056 0.062426224 0.009390077
000110 ae 4a 83 bd 0e 94 23 3d 63 17 3f 3d 3d d8 25 3d
       -0.064107284 0.039936118 0.046653163 0.040489424
000120 44 34 bb bd 79 69 d9 bd b8 c8 85 3d 81 01 e8 bd
       -0.09140828 -0.106158204 0.06532425 -0.11328412
000130 7e 1f 6c bd 64 29 08 3d ac c5 9a 3d e9 73 76 3d
       -0.05764722 0.0332426 0.07557234 0.060169134
000140 68 03 4d bd 2d 3c 0b 3c 48 b8 35 3d fe 16 a6 bd
       -0.050052077 0.008498234 0.044365197 -0.08109854
000150 cb cf 19 3b 4a b7 db 3a a3 e0 7f bc ce 30 0d be
       0.0023469802 0.0016762998 -0.015617522 -0.13788149
000160 46 db 9d bd 6e 67 b7 3d 2b b1 d9 3c 4e e0 84 bd
       -0.07707839 0.089552745 0.026573738 -0.06488095
000170 4e 19 a2 3b 7c 89 34 bd 90 25 28 3c 32 24 ea 3c
       0.004946864 -0.044076428 0.010262862 0.028581712
000180 9b 67 a7 bc 67 58 e8 3c c9 d2 cd 3d d3 95 00 3e
       -0.020435145 0.028362466 0.1004997 0.12557153
000190 a6 23 ad 3d 24 07 fd bc 82 b2 e2 bc 88 e7 6e bc
       0.08454065 -0.030887194 -0.02767301 -0.014581569
0001a0 f8 ab ec 3c ea 8a 76 3c c9 df 96 3d 77 94 28 3c
       0.028890595 0.015047768 0.073669024 0.010289303
0001b0 48 bf 9a bb 0f 5c 60 3d 52 6b 9f 3d 20 85 17 3d
       -0.0047225095 0.054775294 0.077841416 0.036992192
0001c0 4a 63 e1 3c 08 e1 10 bd dd fc 33 3d 66 d5 99 bd
       0.027513165 -0.035370857 0.04394232 -0.07511406
0001d0 ce 2e 99 bc bb 67 a6 b9 e8 41 cb 3d 81 13 93 3d
       -0.018699076 -0.00031739273 0.0992468 0.071814544
0001e0 02 a9 e5 3c fb 11 3a bd f4 1d 03 be 45 0e a0 3d
       0.02803469 -0.045427304 -0.12804395 0.07815222
0001f0 88 47 8d 3d 5d ee 03 bd 91 ee 2b 3d 6b 24 0f be
       0.06898409 -0.032209743 0.04197556 -0.13978736
000200 9b 34 d5 bd f6 70 de bd 47 0e ba bd c2 39 c7 3d
       -0.10410424 -0.10861389 -0.090847544 0.09727813
000210 33 9e 86 bd ea 64 51 bd 71 b3 bb 3d ca f1 9a bd
       -0.06573143 -0.05112163 0.09165085 -0.07565649
000220 a6 01 f1 3d f4 fe 8b 3d b3 70 10 bd 25 a1 e5 bd
       0.117678925 0.06835738 -0.03526373 -0.112123765
000230 d6 7f dd 3d 8a be a4 bd 03 12 02 3c 45 50 05 3e
       0.108153984 -0.08044155 0.007938865 0.13018902
000240 fa 2f 8e bc 6a db 81 bd 81 ea fb 3d 97 12 9f 3d
       -0.017356861 -0.06340678 0.123005874 0.077672176
000250 2e ff cc bd e7 dc 0f bd 77 6e 4c 3c 73 e1 b5 bd
       -0.10009609 -0.03512278 0.012477509 -0.08880892
000260 ff 25 9e bd 96 03 6d 3d 8d 5a e7 bc 50 42 14 3c
       -0.07722091 0.057864748 -0.02824142 0.009049013
000270 71 df e5 bc e7 ba 42 bd 4d 52 d0 3d 80 87 be b9
       -0.028060647 -0.047541525 0.10171948 -0.0003634058
000280 9c b0 56 3c cf 87 e0 bd 9c fc b4 bd 29 9d bb 3c
       0.01310363 -0.109634034 -0.08837244 0.022902088
000290 95 28 c2 bd 9c db 4d 3c 6d 18 17 bd 25 4e 64 bc
       -0.09480397 0.012564566 -0.03688853 -0.013934647
0002a0 3e e5 5a 3d 3f a6 88 3d 37 08 43 bd 62 bd d7 bc
       0.05344128 0.06672334 -0.047615256 -0.026335422
0002b0 25 47 ad bd 41 c4 be bd a9 d3 e7 3d fc 46 da 3b
       -0.08460835 -0.09314776 0.11319668 0.006661294
0002c0 9d f7 7b bd 54 ea d6 bd a5 05 14 3c e5 b0 16 3d
       -0.06151544 -0.10493913 0.009034549 0.036789794
0002d0 95 bb 77 bb 8e 60 b1 3d 5f 5d 1d 3b bd 39 03 bd
       -0.0037801017 0.086609945 0.0024011952 -0.032037485
0002e0 3b 20 49 bc e7 5d 44 bd bc ac ec bd bd 6c b4 3d
       -0.012275751 -0.047941115 -0.11556384 0.08809803
0002f0 cc 8e c9 3c 05 60 52 3d a9 d6 02 bd e2 97 d2 3d
       0.024604224 0.051361103 -0.031942997 0.102828756
000300 57 ae ba bd 48 ae fa bd d3 44 fa 3b 34 0d fa bd
       -0.09115284 -0.12240273 0.007637599 -0.122095495
000310 5d 15 9c 3d 24 45 c6 bd 5a b5 3e bd ae 16 2a bc
       0.07621262 -0.09681156 -0.04655967 -0.010381384
000320 e6 9b 0f bd 72 d7 a9 3d 0c 97 91 b9 27 2a 38 bd
       -0.035060786 0.08293046 -0.00027769094 -0.044962075
000330 23 b1 fb bc 63 0d 1c bd 6a fe 02 3e 6a 25 2a 3d
       -0.030724114 -0.038098704 0.12792364 0.041539587
000340 e2 96 8c bd 78 cc a6 3c 5e 4c c8 3c 48 91 7b 3d
       -0.06864716 0.02036117 0.024450477 0.061417848
000350 8c e2 40 bd eb f9 47 bd 86 69 a5 3d 51 f3 ac bd
       -0.047091052 -0.048822325 0.080767676 -0.084448464
000360 96 9d a1 3d f5 f3 3d 3c e8 3a b7 3d 32 e1 35 bd
       0.07891385 0.011593808 0.08946782 -0.044404216
000370 72 c8 27 bd 28 15 38 3d f7 43 47 3d e4 eb f8 3c
       -0.040962644 0.04494205 0.0486488 0.030385919
000380 96 8c aa 3d 67 e3 31 3d 3f af 74 3d 62 c2 fc 3c
       0.08327596 0.04342976 0.05973744 0.030854408
000390 47 9f 4d 3d 01 d1 b8 3d 1f 60 d2 bd 73 f2 9a 3d
       0.050200727 0.09024239 -0.1027224 0.07565775
0003a0 d2 64 08 3e 99 d6 f4 bd 92 78 99 bc 9b 29 9e 3d
       0.1331971 -0.11954994 -0.01873425 0.07722779
0003b0 e6 50 13 3d 13 b7 37 bc a6 ac a4 3d bd cb 1b 3d
       0.035965823 -0.011213082 0.080407426 0.038036097
0003c0 24 1b 48 bd 77 91 a7 bd ae 67 6c 3d 3f 0e a1 bd
       -0.04885401 -0.08182042 0.057716064 -0.07864045
0003d0 29 c1 83 bd b9 ab ce bc a5 42 a3 bb 11 2d c3 3d
       -0.06433327 -0.025228368 -0.00498231 0.0953008
0003e0 ba 22 c2 bd 66 1b 3d 3d 9f 9c c7 3d b6 5c be 3d
       -0.0947928 0.046168707 0.0974667 0.09295027
0003f0 75 e2 eb 3d 00 fc 5b 3d 82 ed 84 bd ab 79 78 bc
       0.115178026 0.053707123 -0.064906135 -0.015165727

time_mlp.2.bias f4 [64]
000000 9f 55 34 bd 45 41 76 bd e6 e3 ab 3c 7d b2 91 bd
       -0.044026967 -0.06012084 0.020982694 -0.07114122
000010 3f db 0c bd e2 a9 16 bd 03 35 a4 bd cd 8e 85 3b
       -0.034388777 -0.036783107 -0.08017924 0.004075861
000020 46 eb f7 3c 2a 5b a3 3d d3 e3 15 bd 52 b0 97 39
       0.030263554 0.079763725 -0.036594223 0.00028932333
000030 1c 88 77 bd 09 cf 6b bd d9 9e f6 bc 04 9c cb bd
       -0.06043254 -0.05757049 -0.030105041 -0.09941867
000040 e7 5a 2f 3d 93 ea 7d bd 03 c9 e4 bd 2b 3c 04 bc
       0.0428113 -0.061991286 -0.111711524 -0.008070986
000050 69 77 82 bc 49 84 9d bd 38 f1 c2 3d c1 b3 cf 3d
       -0.01592608 -0.07691247 0.09518665 0.10141707
000060 60 40 23 3d b5 5f 21 bd 35 56 c0 3d 20 94 99 bc
       0.039856315 -0.039397914 0.09391443 -0.01874739
000070 78 3e 95 bd 80 51 74 3c 31 c4 00 3c 65 ea bf bd
       -0.072873056 0.014912009 0.007859276 -0.09370879
000080 4b 6b db bd b8 94 f1 3d 56 ec 7d bd 3c 6a 6d 3d
       -0.10713824 0.11795944 -0.061992966 0.05796264
000090 17 fc 57 3d 78 d0 7a 3d 42 a7 03 bd 46 f8 97 3d
       0.052730646 0.061233968 -0.03214193 0.07420401
0000a0 12 34 65 bd 2a 52 1f bc 68 68 94 bd 9a ff 0d 3e
       -0.05595786 -0.009724179 -0.072464764 0.13867036
0000b0 c6 7f a0 3d b0 fa eb bd 02 3d 69 3d 08 ec 4e 3d
       0.07836871 -0.11522424 0.056942947 0.050518066
0000c0 f5 64 90 bd 8b b4 9d 3d 76 c6 e2 bd 3a 23 9a bd
       -0.07050506 0.077004515 -0.1107301 -0.0752625
0000d0 6c f6 1e 3d e3 cf 19 3d ba f5 8d 3d 0f cc f4 bc
       0.038809225 0.03755177 0.06931634 -0.029882459
0000e0 09 3b c7 bd b9 76 9e bb 36 0b 76 3d 95 fc 10 bd
       -0.09728057 -0.00483593 0.060069285 -0.03539713
0000f0 2e 49 9a 3d 5b 9f c8 ba e9 dd a6 3d 09 2d 54 3d
       0.07533489 -0.0015306281 0.08147795 0.05180076

conv1.conv.lin_rel.weight f4 [64, 64]
000000 09 40 1b 3d 29 ae ad bd 9d 59 9c 3d 0d 04 0e 3d
       0.037902866 -0.08480484 0.0763428 0.034671832
000010 fd e6 d6 bd ce 10 d8 3d 44 77 b7 bd f3 be be bc
       -0.10493276 0.1055008 -0.08958295 -0.023284411
000020 98 44 ac 3d 2a 3a b3 3c fe 6b 03 3d 31 d5 e3 bd
       0.08411521 0.02187832 0.03208541 -0.111246474
000030 bc c4 3e bd 41 bd ab 3d 06 39 09 bd 82 e4 1b bd
       -0.04657434 0.08385707 -0.033501647 -0.03805972
000040 97 b0 18 bd 63 3b a2 bc 32 05 ca 3c ab ca 41 3d
       -0.037277784 -0.019803708 0.02466068 0.04731242
000050 f5 07 3f bd aa 0a 9f 3c bd 60 9d bd 5d 05 b5 3d
       -0.046638448 0.019414265 -0.07684467 0.088389136
000060 82 d9 10 bd 99 ba 02 bd 4d b7 c4 3d 37 cd 27 3d
       -0.03536368 -0.031916235 0.09605274 0.040967193
000070 d6 56 4d bd ac 88 9d 3d 95 12 21 bd fb 46 c4 3d
       -0.05013164 0.07692084 -0.03932436 0.09583851
000080 a2 53 38 3d b5 0c 9b bd 61 5b 94 3d 9f f7 d4 3d
       0.045001633 -0.07570783 0.07243992 0.103987925
000090 37 b2 f4 bc 09 e0 55 bd fa 95 9a 3c f4 65 25 3d
       -0.029870136 -0.05221561 0.018870343 0.040380433
0000a0 99 ba 6a 3d 0f 3a f0 bd 6c 01 af bd 1d c4 26 3d
       0.05730686 -0.11729824 -0.08545193 0.040714372
0000b0 47 d7 9b bd ce b0 01 bd 10 81 81 bc 5b 04 ed 3c
       -0.0760942 -0.031662755 -0.015808612 0.02893274
0000c0 b4 d1 b8 bd ff a4 b6 bc bb ab 4a 3d d3 6c a7 3d
       -0.09024373 -0.022295473 0.04948018 0.081750534
0000d0 13 8b af 3d eb e9 bd 3d 88 f3 9d bd 90 d3 55 bd
       0.08571448 0.09273132 -0.077124655 -0.052203715
0000e0 a3 c5 b7 3c 37 4e 40 bd df 19 0c be c7 0b a3 bd
       0.022433108 -0.04694959 -0.13681744 -0.07961231
0000f0 d6 39 89 3d 4a fd c6 bd 04 44 22 3d 0c 99 f7 bd
       0.067004845 -0.0971628 0.039615646 -0.12089738
000100 20 8c 9d 3d 3a 0c bb 3d f7 81 51 3d 1d b5 d6 3d
       0.07692742 0.091331914 0.051149335 0.10483763
000110 dd 86 a2 3d 8f 44 46 bc 4e 6f 56 3d e4 0b c7 3d
       0.079358794 -0.012101307 0.052352242 0.09719065
000120 77 4b 56 3d ce cc 8d bd 26 01 5c bd ac 23 26 bd
       0.052318063 -0.06923829 -0.053712033 -0.040561363
000130 f1 d4 97 bd b3 74 b5 bc 8e 48 3c bd fa b2 72 3d
       -0.07413662 -0.022150373 -0.04596763 0.059252717
000140 93 7f 4a bd 64 04 96 bc 6c 81 56 3c c3 97 92 bd
       -0.04943807 -0.01831264 0.01309238 -0.071578525
000150 55 e3 de bc 60 46 1d bd a3 d2 8c 3d c7 fa b0 3c
       -0.02720801 -0.038397193 0.06876113 0.021603955
000160 3b ed 50 3d 50 6e 8d 3d 41 41 dd 3d 49 62 87 bd
       0.05100749 0.06905806 0.10803462 -0.06610543
000170 c8 3f 91 bd 31 da ca 3d f4 c5 b0 bc 30 48 ea bc
       -0.070922434 0.09904898 -0.021578766 -0.028598875
000180 ff b3 81 bd 06 fe c1 3d fc 21 22 3d db 4c d4 3d
       -0.0633316 0.09472279 0.03958319 0.103662215
000190 72 21 75 3d c1 82 5f bd 44 eb 9e 3d be c3 c9 3d
       0.05984635 -0.054568056 0.07759717 0.09851788
0001a0 1b 9d 50 3d 08 29 da 3c 93 b1 60 3b 50 67 a3 bd
       0.050931077 0.026630893 0.003428553 -0.0797869
0001b0 31 7f 0a 3d 4a 86 7c 3c 6b ed bc bd 47 82 8a bd
       0.033812705 0.015412876 -0.092249714 -0.0676313
0001c0 5e bc 98 3d 43 e8 88 bd d4 f9 05 3d 20 1b 74 3d
       0.07457803 -0.066849254 0.032708958 0.05959618
0001d0 ac 9b 41 3d 23 cb d3 bd 94 74 05 bd 56 05 ba 3d
       0.0472676 -0.1034148 -0.03258188 0.09083049
0001e0 9c d4 6f bd 0c e7 cf 3d cb 69 b8 bd 9f 20 86 3d
       -0.05855237 0.101514906 -0.090045534 0.06549191
0001f0 f8 a5 02 be 1b e1 e6 3d 61 1d a5 bc 57 0e be bd
       -0.12758625 0.11273404 -0.02015561 -0.09280079
000200 66 bf 75 bd 85 d2 10 3d 4a c3 ec bd a0 20 4b 3c
       -0.059996985 0.035357017 -0.11560686 0.012397915
000210 85 dd d1 3d 40 a5 29 3d 6a 6e 04 bd 93 7f 8c 3d
       0.102473296 0.04141736 -0.03233186 0.0686027
000220 1f 5f 3e bd 16 b2 f1 3b be 62 e3 bd 97 b2 cb bd
       -0.046477433 0.007375966 -0.11102818 -0.09946173
000230 7c 15 a3 bd 8c fd a1 bd bc a5 ad 3d 60 72 8d 3d
       -0.07963082 -0.07909688 0.08478877 0.06906581
000240 2d 01 39 3c 51 4d 7a bd 0e de 94 bd 80 62 83 ba
       0.011291784 -0.06110889 -0.07268916 -0.0010023862
000250 a5 f0 ac 3d 46 6c 35 bd 8d 4c 38 bd 59 8d 35 bd
       0.08444337 -0.04429271 -0.04499488 -0.044324253
000260 89 c1 99 3d 53 49 95 3d 4b db 65 3d 3d 5f ee 3c
       0.07507617 0.07289376 0.056117337 0.029098148
000270 e5 26 7c bd c1 07 bc 3d 46 91 c9 bd 7a b3 3f 3c
       -0.06156053 0.091811664 -0.09842162 0.011700505
000280 24 cc c7 3d 39 84 ec bd a8 9c 00 3e 24 af 59 3d
       0.097557336 -0.11548657 0.1255976 0.053145543
000290 a5 dd c3 3c 58 ad e6 3c d3 75 e8 3d f4 fd c0 3d
       0.0239094 0.028158829 0.11350598 0.09423438
0002a0 6f b9 a3 3c 61 1c 3b 3d c6 f8 04 3c bc 2d 8b 3d
       0.019985883 0.04568136 0.008115953 0.067958325
0002b0 46 9c 0d bd 26 79 f7 bc 86 f2 36 3d 10 be 0e 3d
       -0.034572862 -0.030209135 0.044664882 0.034849226
0002c0 82 34 a0 bc 56 0b 6a 3d ff c3 bd 3d 6d b3 cf 3d
       -0.019556288 0.057139717 0.09265899 0.101416446
0002d0 52 b3 bd bd 0a 59 8a bb c3 dd 16 3d 92 d6 cc bd
       -0.09262718 -0.00422204 0.036832582 -0.100018635
0002e0 26 f9 5f 3d 13 1e 44 bd 8d 8b e0 bd b6 18 ee 3d
       0.054680966 -0.047880244 -0.10964117 0.11625807
0002f0 7b 47 85 3b ee c5 0c 3d 2c a0 ab 3d 73 45 c0 3d
       0.004067359 0.034368448 0.0838016 0.093882464
000300 8f ac 6b bd 6b be e2 bd 95 eb d5 3d 20 50 9e 3d
       -0.05753761 -0.110714756 0.10445324 0.077301264
000310 85 0e 92 3c 8e 9f 8c 3c c5 52 f8 bd e6 27 7c 3d
       0.01782919 0.017165925 -0.12125162 0.061561488
000320 e9 b6 ad bd 58 00 02 3d df e5 46 3d c6 08 ce 3d
       -0.08482153 0.03173861 0.048559066 0.10060267
000330 19 ee 1e bd 42 92 80 bd d4 0d 7a bd a7 d6 52 bd
       -0.038801286 -0.062778965 -0.061048344 -0.05147424
000340 b2 42 49 bd 9c b0 fd bb 48 98 a5 bc 55 28 bf 3d
       -0.04913587 -0.0077420007 -0.020214215 0.093338646
000350 9c 37 54 3c a7 a0 b9 3c eb 69 b7 bd fd 6c 77 3d
       0.012952711 0.022659613 -0.08955749 0.060406674
000360 4c de 6f bd c2 f6 02 be 3b 2a 33 bd 53 76 99 bd
       -0.05856161 -0.12789443 -0.043741446 -0.07493272
000370 ad e8 a8 bd 9e 38 b3 3d 68 f8 61 bd 3f 2c ee bd
       -0.082475044 0.08751033 -0.05516854 -0.11629533
000380 cc 3b e3 bd 44 e8 26 3d f6 9e ca bd f6 9a c9 3a
       -0.1109539 0.04074885 -0.09893601 0.0015381265
000390 b6 08 3a 3d 39 79 ac 3d c7 2c be bd 72 1f 5e 3d
       0.045418464 0.08421559 -0.09285884 0.054229207
0003a0 8f 63 87 3d 6c 4e 95 bd 63 14 bb 3d 7d 53 35 3d
       0.06610786 -0.072903484 0.09134748 0.044269074
0003b0 3b 0c 06 bd 1a 8e 91 3d 1f 3f 38 3d 59 66 2e 3d
       -0.032726508 0.07107182 0.044982072 0.042578075
0003c0 9e 89 dd 3d 7c 85 af 3b cc 13 59 bd 53 35 8b bd
       0.10817264 0.0053564887 -0.052997395 -0.0679728
0003d0 83 da c1 3d 25 e4 d4 bd 88 20 96 3d d4 9c 65 3d
       0.09465506 -0.103950776 0.073304236 0.056057766
0003e0 30 be e7 3d 11 8b e8 bc c3 20 bc 3c d4 60 65 3c
       0.11315572 -0.028386625 0.02296484 0.014000136
0003f0 81 25 a0 39 d9 45 f3 3d 33 31 fb 3c 84 28 3f 3b
       0.0003054552 0.11878557 0.030663108 0.0029168436

conv1.conv.lin_rel.bias f4 [64]
000000 69 3d 30 3d 51 b5 5b bd 45 2f da bd e2 4d ab bd
       0.043027315 -0.053639714 -0.10653547 -0.08364464
000010 23 09 d8 3d fa 9a 31 3a d9 ba 8f 3c 36 fe e5 3b
       0.10548618 0.00067751075 0.01754515 0.0070188297
000020 05 3c a0 3b 66 e7 b7 3d 39 ff de 3d cd 46 dc bc
       0.0048899674 0.089796826 0.108885236 -0.02688923
000030 98 ed 7a bd ba b8 ad bd 2f b4 3d bd a1 2e 46 3b
       -0.061261743 -0.084824994 -0.046314415 0.0030240195
000040 0c 6e e4 3c de 67 c3 bd db 53 50 bd 71 67 56 3c
       0.027884506 -0.095412955 -0.05086122 0.013086186
000050 35 af 8b bd 92 c4 b8 3d 0e d8 4e bd c5 30 e6 3d
       -0.068205275 0.09021868 -0.050499015 0.11239771
000060 03 9b 9a bd a4 6a ea 3c c7 36 30 bd 94 ea 9f bc
       -0.075490974 0.028615303 -0.04302099 -0.019521035
000070 67 ad ae 3d 02 e3 9a 3d 0f e2 22 3d 69 26 16 3d
       0.085291676 0.075628296 0.039766368 0.036657725
000080 72 6e 71 3b 8d 9a e6 bc f2 5d da 3d 86 a5 e0 3d
       0.0036839512 -0.028149867 0.1066245 0.10969071
000090 ce 38 a4 3d a0 4d 07 bd 40 9b 04 3d 8b bc 02 3e
       0.08018647 -0.033033013 0.03237462 0.12767236
0000a0 64 26 83 bd 70 60 06 bd 51 b8 4d bd 7b 9d 76 bd
       -0.06403807 -0.032806814 -0.050224606 -0.06020878
0000b0 ad a5 d7 3c 39 d6 9f bd 67 82 8f bc ff 80 c2 3d
       0.026324118 -0.078045316 -0.017518235 0.0949726
0000c0 c4 31 80 bd 63 44 c6 bd d8 75 bc 3d 42 e9 87 bb
       -0.06259492 -0.096810125 0.092021644 -0.0041476795
0000d0 c3 ac 00 bc c6 f6 c6 bd d1 f0 11 bc 72 3e 94 bd
       -0.00785369 -0.09715037 -0.008907513 -0.07238473
0000e0 88 c2 ef bc ae 13 da 3d ba 8e c6 bd 72 ff 9f 3d
       -0.029267564 0.10648285 -0.09695192 0.07812394
0000f0 04 41 43 bc 98 9f e8 3d 6e dc b7 3d 4c b8 eb bd
       -0.011917356 0.11358565 0.089775905 -0.11509761
